…
model.add(Conv2D(64, (3, 3), padding='same'))
model.add(Activation('relu'))
model.add(Conv2D(64, (3, 3)))
model.add(Activation('relu'))
model.add(MaxPooling2D(pool_size=(2, 2)))
model.add(Dropout(0.25))

model.add(Flatten())
model.add(Dense(512))
model.add(Activation('relu'))
model.add(Dropout(0.5))
model.add(Dense(num_classes))
model.add(Activation('softmax'))

model.summary()
_________________________________________________________________
Layer (type)                 Output Shape              Param #   
=================================================================
conv2d_1 (Conv2D)            (None, 32, 32, 32)        896       
_________________________________________________________________
activation_1 (Activation)    (None, 32, 32, 32)        0         
_________________________________________________________________
conv2d_2 (Conv2D)            (None, 30, 30, 32)        9248      
_________________________________________________________________
activation_2 (Activation)    (None, 30, 30, 32)        0         
_________________________________________________________________
max_pooling2d_1 (MaxPooling2 (None, 15, 15, 32)        0         
_________________________________________________________________
dropout_1 (Dropout)          (None, 15, 15, 32)        0         
_________________________________________________________________
conv2d_3 (Conv2D)            (None, 15, 15, 64)        18496     
_________________________________________________________________
activation_3 (Activation)    (None, 15, 15, 64)        0         
_________________________________________________________________
conv2d_4 (Conv2D)            (None, 13, 13, 64)        36928     
_________________________________________________________________
activation_4 (Activation)    (None, 13, 13, 64)        0         
_________________________________________________________________
max_pooling2d_2 (MaxPooling2 (None, 6, 6, 64)          0         
_________________________________________________________________
dropout_2 (Dropout)          (None, 6, 6, 64)          0         
_________________________________________________________________
flatten_1 (Flatten)          (None, 2304)              0         
_________________________________________________________________
dense_1 (Dense)              (None, 512)               1180160   
_________________________________________________________________
activation_5 (Activation)    (None, 512)               0         
_________________________________________________________________
dropout_3 (Dropout)          (None, 512)               0         
_________________________________________________________________
dense_2 (Dense)              (None, 10)                5130      
_________________________________________________________________
activation_6 (Activation)    (None, 10)                0         
=================================================================
Total params: 1,250,858
Trainable params: 1,250,858
Non-trainable params: 0
_________________________________________________________________

opt = keras.optimizers.rmsprop(lr=0.0001, decay=1e-6)

model.compile(loss='categorical_crossentropy',
              optimizer=opt,
              metrics=['accuracy'])

history = model.fit(x_train, y_train,
…
model.add(Activation('elu'))
model.add(MaxPooling2D(pool_size=(2, 2)))

model.add(Conv2D(64, (3, 3), padding='same'))
model.add(Activation('elu'))
model.add(Conv2D(64, (3, 3)))
model.add(Activation('elu'))
model.add(MaxPooling2D(pool_size=(2, 2)))

model.add(Flatten())
model.add(Dense(512))
model.add(Activation('elu'))
model.add(Dense(num_classes))
model.add(Activation('softmax'))

model.summary()
_________________________________________________________________
Layer (type)                 Output Shape              Param #   
=================================================================
conv2d_5 (Conv2D)            (None, 32, 32, 32)        896       
_________________________________________________________________
activation_7 (Activation)    (None, 32, 32, 32)        0         
_________________________________________________________________
conv2d_6 (Conv2D)            (None, 30, 30, 32)        9248      
_________________________________________________________________
activation_8 (Activation)    (None, 30, 30, 32)        0         
_________________________________________________________________
max_pooling2d_3 (MaxPooling2 (None, 15, 15, 32)        0         
_________________________________________________________________
conv2d_7 (Conv2D)            (None, 15, 15, 64)        18496     
_________________________________________________________________
activation_9 (Activation)    (None, 15, 15, 64)        0         
_________________________________________________________________
conv2d_8 (Conv2D)            (None, 13, 13, 64)        36928     
_________________________________________________________________
activation_10 (Activation)   (None, 13, 13, 64)        0         
_________________________________________________________________
max_pooling2d_4 (MaxPooling2 (None, 6, 6, 64)          0         
_________________________________________________________________
flatten_2 (Flatten)          (None, 2304)              0         
_________________________________________________________________
dense_3 (Dense)              (None, 512)               1180160   
_________________________________________________________________
activation_11 (Activation)   (None, 512)               0         
_________________________________________________________________
dense_4 (Dense)              (None, 10)                5130      
_________________________________________________________________
activation_12 (Activation)   (None, 10)                0         
=================================================================
Total params: 1,250,858
Trainable params: 1,250,858
Non-trainable params: 0
_________________________________________________________________

opt = keras.optimizers.rmsprop(lr=0.0001, decay=1e-6)

model.compile(loss='categorical_crossentropy',
              optimizer=opt,
              metrics=['accuracy'])

history = model.fit(x_train, y_train,
…
